assignments/cart_pole_optimal_control/cart_pole_optimal_control/dqn/dqn_cartpole_trained_default.pth (torch, 21386 bytes, 6 tensors)

fc1.weight f4 [64, 5]
00000000: a10e c7be f862 8fbe f6f1 5c3f e281 8ebd
00000010: 1c97 99be 8380 1d3e c7a2 cebd c73d 98bd
00000020: 899f 233e 3286 3a3e 7b2a 1a3f a7ec a53e
00000030: b7a5 c3be b1bb 06be 17eb a53d c719 2bbd
00000040: da47 c23e 5232 1540 70a1 843e d913 49be
00000050: cd31 fbbe 4561 313f f7ef a6bc 3053 d63e
00000060: 0219 e13e 0d75 76bf f43b 873e 9af4 7abf
00000070: 2974 82bf 690c 8ebe 43bb e2be 2fb8 37be
00000080: c069 813e 2807 14be c2a4 c3be 8b8a 913e
00000090: e9fe 89be 9bbc a3bd 3f40 b93d c15d 923e
000000a0: 921d 123e c958 3c3e e1f9 89c0 ae67 59be
000000b0: 5e64 7a3e 65ad a0bd 6fd7 833e 6e27 7c40
000000c0: bf34 403f 8170 0abd 6740 37be d364 a4bc
000000d0: 04a1 8f3f 64dc ffbd 5d9c c6be 8b8b 6dbe
000000e0: 7756 debe 3232 43be 46fc d93d edce 323e
000000f0: 77ea 4c3e e64d 0dbe 1f30 943d 2769 3c3e
00000100: 3a0e 89bd 6b5f e43b 569c 18be 8703 3f3f
00000110: 8195 33be d802 b0be 569b 953e a9b6 30be
00000120: acfb 483f 8489 423d 2e70 553e 35ae 7ebc
00000130: 1f90 bbbc 4647 c340 f07f 283f cf6a c03e
00000140: ff07 7a3e 5cfb 15be 2384 843e 9b16 cb3d
00000150: 7793 443e 2dfe 91be 0f18 f8bd c864 093f
00000160: 3345 67be f84e 33be 458a d9bd 01ad 5a3e
00000170: a16f 5a40 64c0 1a3f 0ac8 26be 7af6 29be
00000180: 7895 d0bd 977e 62be 6d6c b13e 3be9 b9be
00000190: cccd 08be 044a 873e 8b8a 6e40 8b6a 153f
000001a0: 41cd 9ebe 3d87 ca3d 8eb6 19be 0e88 183e
000001b0: 851d 8fbd 8fe1 793e e953 abbd dfaf f63e
000001c0: eff2 cf3f 9ef6 1a3f e6ac 52be 5441 26bc
000001d0: cc41 79bd b845 b140 7c0a e63e 9e01 73be
000001e0: 89a4 0cbf 4aee 7abd 9fbb 14c0 e504 cfbe
000001f0: a8bd b63e ee65 c2bc 696f 813e 88cd 6d3e
00000200: 77a9 d43e b5fb aebd f0ac 5c3f fdf3 febe
00000210: 5297 70c0 262c fbbe 56df 1e3d eec3 6fbf
00000220: 2720 143f 2eeb 1040 717e 123f 17fd c83e
00000230: dc83 c63f a64a c43f 4070 1a40 1c5d 873f
00000240: 0c8a ae3e c8a6 393d 601d 0dbe 478c 72be
00000250: 9eba f3bd b9c4 a2be 786c 08be e9c6 dcbe
00000260: abd1 f63c 5233 633c 3d3f 3e3e e717 213d
00000270: 6f82 993d 04e9 223e 778a 9e3e 86c2 473e
00000280: c2a7 64be cc1d 9fbd 0496 00be aadb c33e
00000290: 2820 65be de2a d43f ac1f 4e3c 6ced a0bf
000002a0: 2f93 86be 0774 77bc 0336 45be bbb2 9a3e
000002b0: 0947 a93e 54bb 913e a4c8 7abd c1d3 163f
000002c0: fd05 0d3e 522b 4dbf 56e0 863d 437e dbbe
000002d0: e905 2b3f 9b67 8dbe 9e1c 76c0 1588 d8be
000002e0: f53e 173e 1541 7b3e 408b 94bc e020 cf3e
000002f0: 5762 5b3e df30 3e3e 1910 4dbf 6af1 f43e
00000300: 5259 93bf 8cba 3d3e 29a5 55bd 7a0a 19bd
00000310: 8781 fc3d 84a3 30be 8203 bd3d fa21 eebd
00000320: f296 ce3e 195f f43e 7374 8940 f0ea 473f
00000330: 01fa b53e 64e9 2dbe f2ec bb3e e7e8 243f
00000340: 8826 003f fcad 7e3d abfe 163f d53d d73c
00000350: 976d 00bd 8187 89be db99 19be 1733 ba3e
00000360: f352 5bbf 8b81 7abf e8ae 21bf 8244 a83e
00000370: 3984 163d 1c42 303f 8892 b23f 51bd c53e
00000380: b21a 503e 434a 1ebf 473f 0d3e eade 56c0
00000390: 9e2e 84be 4322 1ebe c308 303f 0e4e 1c3f
000003a0: 4378 5840 63b3 573f 5e9e e33d 784e ebbd
000003b0: 9ab6 a9be 9124 7b3e e561 97be 0073 adbe
000003c0: 30ad 1cbe 0f4f 753e 511c f53e 3846 38be
000003d0: 0a29 a4be 1bb0 7abe 3ddc 89bb 451a 3d3e
000003e0: 7784 e23d b38e aebe cd4b e5be 0b0d 863e
000003f0: f34e fd3e 1c66 a93e 16a5 d2be c442 2fbe
-0.38878348 -0.28005195 0.86306703 -0.06958367 -0.299981 0.15381055 -0.10089641 -0.07433658
0.15978827 0.18215254 0.6022107 0.32407114 -0.38212368 -0.13157536 0.081014805 -0.04177263
0.37945443 2.3311963 0.25904417 -0.19636478 -0.49061432 0.69289047 -0.020378096 0.41860342
0.43964392 -0.96272355 0.26412928 -0.9802948 -1.0191699 -0.27743843 -0.44283494 -0.17941354
0.25275993 -0.14455855 -0.38211638 0.28426012 -0.26952294 -0.07994958 0.09045457 0.28587154
0.14269093 0.18393244 -4.311753 -0.21230957 0.2445235 -0.078455724 0.257503 3.9399066
0.75080484 -0.0337987 -0.17895661 -0.020067608 1.1221013 -0.12493208 -0.3879117 -0.23197763
-0.43425342 -0.19062117 0.106438205 0.17461748 0.20011316 -0.13799247 0.07235741 0.18399487
-0.066921666 0.0069693825 -0.14903387 0.7461476 -0.175375 -0.3437717 0.29220074 -0.1725718
0.7850902 0.047494426 0.20843574 -0.015544464 -0.02289587 6.1024504 0.6582022 0.37581488
0.24417113 -0.14646667 0.25882062 0.09916421 0.19196878 -0.28514233 -0.12113964 0.53669405
-0.22584991 -0.17510593 -0.10622076 0.21355058 3.4130633 0.60449815 -0.16287246 -0.1659793
-0.10184759 -0.22118603 0.34653035 -0.36310753 -0.13359755 0.26423657 3.727206 0.58365697
-0.3101597 0.09889076 -0.15011045 0.1489565 -0.06988052 0.2440245 -0.08365614 0.48181054
1.6246012 0.6053256 -0.20573768 -0.010147411 -0.060853764 5.5397606 0.44929874 -0.23731086
-0.5493856 -0.061262406 -2.3239515 -0.40433422 0.3569157 -0.023730244 0.25280312 0.23222935
0.4153554 -0.08544103 0.8620138 -0.49795523 -3.7592359 -0.4905712 0.03878721 -0.9365834
0.5786156 2.2643542 0.57224184 0.39255592 1.550899 1.5335281 2.4131012 1.057529
0.34089696 0.04532507 -0.13780737 -0.23686324 -0.11900829 -0.31790712 -0.13322628 -0.43120506
0.030129274 0.013867216 0.18578811 0.039329436 0.07495581 0.15909201 0.30965015 0.19507799
-0.2232962 -0.07769355 -0.12557226 0.38253528 -0.22375548 1.6575582 0.012580793 -1.2572455
-0.26284167 -0.015103347 -0.19258885 0.30214486 0.33062008 0.28463233 -0.061226502 0.5891686
0.13771816 -0.80144227 0.065857574 -0.42869768 0.66805893 -0.27618107 -3.8454967 -0.42291322
0.1477011 0.24536546 -0.018132806 0.4045477 0.21424232 0.1857333 -0.8010269 0.47840434
-1.1511633 0.18528193 -0.052159462 -0.037363507 0.12329393 -0.17249876 0.09229185 -0.11627574
0.40349537 0.47728804 4.295465 0.7809286 0.355423 -0.16983563 0.36704212 0.6441788
0.50058794 0.062177643 0.5898234 0.026274601 -0.031354513 -0.26861194 -0.15000097 0.36367103
-0.85673445 -0.97853917 -0.6315751 0.32864767 0.03674719 0.68850875 1.3950968 0.38621
0.20322683 -0.61832064 0.1379367 -3.3573556 -0.25816816 -0.15442757 0.6876337 0.610566
3.3823402 0.842581 0.111141905 -0.11489576 -0.33147126 0.24525668 -0.29566875 -0.338768
-0.15300441 0.2395594 0.47873166 -0.17995536 -0.3206256 -0.24481241 -0.0042071627 0.18467052
0.11060422 -0.34093246 -0.44784394 0.26181826 0.49474296 0.33085716 -0.41141576 -0.17115313

fc1.bias f4 [64]
00000000: bdab 16bf d2b5 203f d870 47bf ca40 313e
00000010: 0ec5 403e 6612 83be a991 71bf 9d0c 3f3f
00000020: ddef 59bf a239 623f 298a c53e 4b8c ee3e
00000030: 7d66 523f 0f5a 073f 55ca 663f 25c2 80bf
00000040: a76e 4c3f c4a3 713f 2026 433f 6e84 5c3f
00000050: 3e4a 4a3f d646 48be c939 fd3b 7bcb 8ebf
00000060: b6c2 93bf c130 163f 2b54 17be 01cf 543e
00000070: 6998 1ebf cd9c afbe 34ad 123f 6d77 203f
00000080: 1e5f 663f 35c2 f33e 8284 393f a329 5b3f
00000090: 47e7 8f3f 6c20 743f 0def aabd 3100 143f
000000a0: ab8d a2bf dde5 683f 5759 193f 7f45 fbbd
000000b0: bd55 a93e e35d c3be 69cc 3abf 7446 683f
000000c0: 0a5d 573f 09e1 f03e 7615 c43e 734c 3c3f
000000d0: 11c3 72bf 9a04 403f b35a 713f fa7b 143f
000000e0: c4cc d93e 31a5 433f 7049 4a3f 81d5 f9be
000000f0: 0463 1e3f 4cd9 0a3d 56ac 9e3d d2dd 5b3f
-0.588558 0.62777436 -0.7790656 0.17309871 0.1882517 -0.25599974 -0.94362885 0.7462862
-0.8513163 0.8836919 0.3858197 0.4659141 0.82187635 0.52871794 0.90152484 -1.0059248
0.7985634 0.9439051 0.7623005 0.8613957 0.79019535 -0.19558272 0.007727836 -1.1155847
-1.1543796 0.5866814 -0.14778201 0.2078209 -0.6195131 -0.34299317 0.57295537 0.6268223
0.8998889 0.47609106 0.72467816 0.8561041 1.1242455 0.9536197 -0.083463766 0.5781279
-1.2699484 0.90975744 0.59901947 -0.12269115 0.33073226 -0.38157567 -0.72968155 0.907325
0.8412634 0.47046688 0.38297623 0.7355415 -0.948289 0.7500702 0.9427902 0.58001673
0.42539036 0.7642394 0.79018307 -0.48795703 0.61869836 0.033898637 0.07747714 0.85885346

fc2.weight f4 [64, 64]
00000000: 20a6 e03e 9b3f 083e e64a 11bf 744e 423e
00000010: 608a a3bc 1c9e f03e 0809 d5bf e44a 863e
00000020: d476 6bc0 6684 1ebf c301 233e a1da 2a3d
00000030: 3078 b73e 53a8 a93e e8ab 7c3e a643 a0bf
00000040: 0c8b bf3e 054a c63e 687a 3abf 305b ad3e
00000050: d637 bebf 228e 8a3d 38b1 8e3e 881c 45c0
00000060: bd87 8fbf a561 803e ae50 fdbe c17b 593f
00000070: 0582 46c0 ada5 3ebd f054 f63e 8389 4f3e
00000080: 5642 793e 72d4 c5be a458 953e 99f9 363f
00000090: 1a2c 19bf 4001 c93e d08d 6ebf 62a7 853e
000000a0: eb77 55c0 e87d a73e 41b4 f93e 8413 5ebf
000000b0: 97f0 6a3d 88fc 5cbf d039 02c0 c48e 9f3e
000000c0: 4458 a93e 394e 513e 70db 683e 459f 8d3e
000000d0: 922d 8ac0 d886 a03e 79dd ad3e 366c f03e
000000e0: 0ba4 da3e 5a56 e93e d11a 843e 7624 10be
000000f0: deb9 ee3e c9ea 97bf 5de5 e73d e647 763e
00000100: c8df f03d a8fb 75be 950d 993e a0d1 7dbf
00000110: 907f b83e 2432 9e3f af01 d4be cb30 bebe
00000120: 7e77 a3bf caf5 2dbe 835e 92bc 1a65 1c3f
00000130: 27b9 ac3d 0c1b ef3c 9f78 0abf 827d 90be
00000140: e6b7 d5be 76e1 a43e 6ad3 203d d3db 253f
00000150: de08 52bd ee4e 91bd 8562 aa3e 3349 01bf
00000160: 09c3 7e3f adf5 12bf 94a5 ce3f 91b7 b5bf
00000170: e824 673e 249a b63d 310e 153f 1d78 2abe
00000180: 8bbd 0c3f cff8 69c0 1b1c a43e 9c3d 183e
00000190: c4a3 b13f 274a 20bf 6ec0 e83f 5fd7 ad3e
000001a0: ea66 3ebf a4b4 823d 4c0b 513f 3e35 c1be
000001b0: 654c 2fbf 53f4 f33f 18dd 5a3e a94f fc3e
000001c0: 60c2 92bd 019c 013f 6949 253f 1574 e13e
000001d0: 21da e03f e98d 4fbf 8328 d23d e067 02be
000001e0: d803 e5be d576 83bf 7cc8 9a3e 1e85 fb3d
000001f0: 8484 643e 94d1 b93f 6d60 06bf a186 b2bd
00000200: 3fe6 e23c f737 e83e ea32 3ac0 b4e1 01bf
00000210: 1c78 b13e c014 0a3f 58d5 d13e 64c3 c43e
00000220: d48c 97c0 6163 f9be b702 a53d 8ea4 be3e
00000230: fe77 e83e d7a9 cf3e 72cc 3f3e 3745 e73f
00000240: b768 9f3e 7c14 f93e 6505 11bf 2d00 ab3e
00000250: 0b5b 50bf 02af b6bd 6fda 11bf d23e b8be
00000260: 54ba 473f ef7d c13d 3c62 003f 2fa7 d7bf
00000270: 0a73 f0bf 4b95 90bc e985 f83e e0fe 4b3e
00000280: 9af2 eb3e 9be7 403f 4bd5 1b3e 7402 ad3e
00000290: 8ef5 213f af24 693e 26e0 843e 385b 213f
000002a0: 6aba 14c0 ab17 d73c 674f 233f 53c2 693f
000002b0: 7d01 fdbc fbc1 eebf 3702 ae3f 62da f73e
000002c0: cfea 473e 219c cc3e 2629 e6bd 94cb 0a3f
000002d0: ea47 9cbf 987a 75bd 0bd2 443e 05f8 d93e
000002e0: 15a7 eebd fca9 283e a8e1 0c3f 64e4 c73d
000002f0: d9c8 1d3e 1686 9c3d 9728 e93e 2fb1 ac3e
00000300: 5d0d bebf 2688 10be 0ebd b6be f38a f13b
00000310: 5cfa 17bf 7bd2 60c0 4d38 46bf 11a4 d8bd
00000320: c2e4 b13d c314 dd3e a455 98bc 972f 2c3e
00000330: d7e3 f3bd 4bb3 38bd 3d5b c9bd c349 043f
00000340: cfbd ddbd 0965 463c d6ed a33e 844a 743d
00000350: 9d1a c13e 9e73 863d b76c 1c3d 5cb3 943e
00000360: 671c 38bf a989 09be 46f3 9bbf 8ebd 33be
00000370: 8220 3dbe 406e a0bc 3349 813d 8e61 afbd
00000380: 513c 2a3d 5f6b 2bc0 8962 853d 5506 79c0
00000390: d7b9 01c0 8aa9 ddbd f7ad f2be 19f1 0bbe
000003a0: 5898 31bd ced8 dd3d b36a cfbf 4984 aa3f
000003b0: c694 f6be 50ea 11c0 1535 063f 8385 b8bd
000003c0: 4571 a8be 0239 1b3e 9382 6d3e 70eb 313b
000003d0: 684b 8ebd 7558 10be cda4 d7bd cf5a e3bd
000003e0: a2c8 02be 031e f9bd 2154 b0be 0ae1 cebd
000003f0: 06dd cabd b360 9dbf eba7 0ec0 47d4 29be
0.43876743 0.13305514 -0.5675491 0.1897524 -0.019963443 0.46995628 -1.6643381 0.26229012
-3.6791277 -0.61920774 0.15918641 0.041712407 0.35833883 0.33136234 0.24674952 -1.2520645
0.37410772 0.38728347 -0.7284303 0.33858633 -1.486079 0.06765391 0.27869582 -3.0798664
-1.1213299 0.25074497 -0.49475616 0.8495446 -3.1016858 -0.04654472 0.48111677 0.202673
0.24341711 -0.38638645 0.2916919 0.71474606 -0.5983292 0.39258766 -0.9318514 0.26104265
-3.3354442 0.32713246 0.48770335 -0.8674853 0.05735835 -0.8632283 -2.0347786 0.3116361
0.33075154 0.20439996 0.22739959 0.27660576 -4.318063 0.31352878 0.33958033 0.46957558
0.4270328 0.45573694 0.2580171 -0.14076409 0.4662618 -1.1868526 0.113230444 0.24050865
0.11761433 -0.2402178 0.29893175 -0.9914799 0.36034822 1.2359052 -0.41407534 -0.371466
-1.2770841 -0.16988292 -0.017867332 0.6109177 0.084337525 0.029187702 -0.54090303 -0.28220755
-0.41741866 0.32203263 0.03926412 0.6478855 -0.051277988 -0.07095133 0.3327829 -0.5050232
0.9951635 -0.5740612 1.614428 -1.4196645 0.22572672 0.08916119 0.5822478 -0.16647382
0.5497672 -3.655811 0.32052693 0.14867252 1.3878102 -0.6261315 1.8183725 0.33953378
-0.74375784 0.06382111 0.8165786 -0.37735933 -0.68475944 1.9058937 0.21373403 0.49279526
-0.0716598 0.5062867 0.6456514 0.44033876 1.7566568 -0.8107591 0.10261633 -0.12734938
-0.44729495 -1.027064 0.30231082 0.122812495 0.22316176 1.4517083 -0.52490884 -0.08717085
0.02769768 0.45355198 -2.9093575 -0.5073502 0.3466195 0.5393791 0.4098308 0.3843032
-4.735941 -0.48708633 0.080571584 0.3723492 0.45404047 0.40559265 0.18730333 1.8067998
0.3113458 0.4864844 -0.56648856 0.33398572 -0.8138892 -0.08920099 -0.5697393 -0.35985428
0.7801869 0.09447848 0.50149894 -1.6847895 -1.8785107 -0.017649313 0.48539665 0.19921446
0.46083528 0.753534 0.15218084 0.33790934 0.6326531 0.227679 0.25952262 0.63029814
-2.3238778 0.026256403 0.63793033 0.9131214 -0.030884499 -1.8652948 1.3594426 0.484088
0.19523166 0.39962867 -0.11238317 0.54216886 -1.2209446 -0.059931368 0.1922075 0.42572036
-0.11652962 0.16471094 0.55031824 0.09760359 0.15408649 0.07642762 0.4553878 0.3372893
-1.4847828 -0.14114437 -0.35691112 0.0073713004 -0.59366393 -3.5128467 -0.7742966 -0.10578168
0.0868621 0.43179902 -0.018595524 0.16815029 -0.119086914 -0.045092862 -0.098318554 0.5167505
-0.10827219 0.01210905 0.32017392 0.059641376 0.37715617 0.06565021 0.038189616 0.2904309
-0.7191834 -0.1343142 -1.2183616 -0.17552778 -0.18469432 -0.019583821 0.0631279 -0.08563529
0.04156143 -2.6784284 0.06512935 -3.8910115 -2.0269678 -0.10823353 -0.4739835 -0.1366619
-0.043358177 0.10832368 -1.6204437 1.332162 -0.4816038 -2.2799263 0.52424747 -0.0900984
-0.32898918 0.15158466 0.23194341 0.0027148388 -0.06947976 -0.14096244 -0.1052948 -0.11101305
-0.12771848 -0.121639274 -0.34439185 -0.101015165 -0.09905438 -1.2295135 -2.228999 -0.16584884

fc2.bias f4 [64]
00000000: 4a03 163f 1abc e23e 4069 cb3e 59a6 71be
00000010: 1985 1b3f 83c3 253f 65bc b0bd a81f 513d
00000020: 697c 0c3f 9191 dd3e dd87 1b3f ebe9 d4bd
00000030: 301f 983e c75a 083f ad28 eb3e 4c72 1e3f
00000040: 8c36 133f 7dc0 c0bd 5a3f f43e cf7f fa3e
00000050: 1c49 b0bc 8e4e 66bd 4064 173f 574c 073f
00000060: 5288 0f3f 14b2 febd eab6 de3e b315 babb
00000070: e791 d6bd 480e 1dbd e924 b73d 656a b8be
00000080: da73 093f 7b57 5b3d 27cb cabd a156 003f
00000090: acce 243f 1ae2 473f 5d17 e63e 927e 313f
000000a0: 399a bd3e d636 0b3d 15ae 85be acc1 f33e
000000b0: 0762 433b 8798 133f 838c 003f 4b45 c63e
000000c0: 3aba 033f e987 2e3f 1226 073f 6125 78be
000000d0: 0480 043f dc7e b1bd 4cba 69bd c08a 1d3f
000000e0: 457a fcbd 4557 e53e 050b ef3e 0277 c9bd
000000f0: f116 203f 4947 0f3f 792f 183f 825d a7bd
0.5859877 0.44284135 0.39728737 -0.23598613 0.60749966 0.6475145 -0.086296834 0.05105558
0.54877335 0.4327512 0.60754186 -0.10396179 0.29711294 0.53263515 0.4592947 0.61893153
0.57505107 -0.09411714 0.47704583 0.48925635 -0.021519236 -0.05622726 0.59137344 0.5285086
0.56067383 -0.124363095 0.43498927 -0.0056788563 -0.104770474 -0.038343698 0.08942587 -0.36018673
0.536924 0.053550225 -0.099020295 0.50132185 0.64377856 0.7807938 0.449397 0.69333756
0.37031725 0.033987843 -0.26109377 0.47608697 0.0029813068 0.57654613 0.50214404 0.3872474
0.51456034 0.6817613 0.52792466 -0.24233009 0.51757836 -0.08666775 -0.057062432 0.6153984
-0.123280086 0.44793144 0.46688095 -0.09837152 0.62535006 0.5596815 0.5944744 -0.08172132

fc3.weight f4 [2, 64]
00000000: 39b6 ea3f 000e a0bf f9c0 04c0 7a90 9bbe
00000010: 9484 d43f 7bb8 e83f 2877 ad3c e9f8 58bd
00000020: 59ee a53f 0eee ba3f 725c 853f afdc f53d
00000030: 697c ee3f 528e dc3f cb6c f23f 1ac0 bf3f
00000040: 0cec af3f ff45 4d3d a883 ee3f a592 8f3f
00000050: 9f3c d6bb 6f26 74bd f5e4 b53f aa03 c63f
00000060: f29a 643f d826 623d eb8d f23f 4c4b 9cbd
00000070: a68d 4d3d 3456 913d 9c88 0cbc f8ad 3ac0
00000080: 7d77 db3f 8069 6abd 260f 6abc 3f8e f23f
00000090: 7022 c13f 7dbf f43f 7b4e 8d3f 6304 f8bf
000000a0: d44c c23f fdd1 64bb 6e00 77c0 433c 543f
000000b0: 56f0 6fbd 76bb e73f 9abc dd3f 21b7 cf3f
000000c0: 20c7 f43f 02b8 613f f17c d43f 27f3 9bbf
000000d0: b80c d33f 7009 d7bd 6473 a73c e370 0540
000000e0: e875 83bb 0e3b e63f 0de7 913f 70d7 33bd
000000f0: 02e3 fb3f 63e1 b83f d85e bb3f dcdb d7bd
00000100: 2923 b63f 543d f93f 1be2 c33f bc8c 94bf
00000110: ed54 c33f 4cf2 993f afa5 b6bd 74e4 bb3c
00000120: 1389 df3f 8a16 d03f 4729 fa3f 26be d7bd
00000130: d7a3 6bc0 6c0f b93f 84c2 9b3f e8a8 b13f
00000140: 4324 e13f 7e49 edc0 70d7 c03f 0f03 35c0
00000150: 7e7b 0dbd 4229 a73c 3040 ee3f ad0f be3f
00000160: 0f4b e63f 804d be3d 4c1d b13f 001c e239
00000170: a035 2bbe 8bbf 373d d0b5 b53c add0 4940
00000180: d60c b93f 59f7 f2bb 3826 d73d b045 c63f
00000190: 4e0e ca3f a356 863f 447b d53f c2b3 8d3f
000001a0: fae9 cd3f c7b1 afbd e831 683f 4287 f23f
000001b0: 455e 3dbd ea7b a03f aa76 c03f 1483 b63f
000001c0: 49dd ac3f 3eeb 0340 074a c73f 5fe9 1dbe
000001d0: f515 d43f 6586 87bc 2819 863c 58b6 a33f
000001e0: fa15 ba3d fd55 cb3f feb1 cb3f 707d f0bd
000001f0: 1f6a 8d3f 5ce8 ef3f 0c8f c63f 5281 c73d
1.833686 -1.2504272 -2.074278 -0.30383664 1.660296 1.8181299 0.021174982 -0.052971754
1.2963363 1.4603899 1.0418837 0.12004983 1.8631717 1.7230933 1.8939451 1.49805
1.3743911 0.05011558 1.8633928 1.1216627 -0.0065379883 -0.059606966 1.4210497 1.5469868
0.8929893 0.055212826 1.894956 -0.07631549 0.050183915 0.0709652 -0.008577492 -2.9168682
1.714584 -0.05722952 -0.014285838 1.894966 1.5088634 1.9120938 1.1039575 -1.9376339
1.5179696 -0.0034915202 -3.8594012 0.8290445 -0.05857881 1.8104084 1.7323182 1.6227762
1.9123268 0.881714 1.6600629 -1.2183579 1.6488256 -0.10499847 0.020440765 2.085015
-0.0040118583 1.7986772 1.1398636 -0.04390663 1.9678652 1.4443783 1.4638319 -0.10539982
1.422948 1.9471841 1.5303377 -1.1605449 1.5260292 1.2027068 -0.089183204 0.022936083
1.7463707 1.6256878 1.9543847 -0.10534315 -3.681875 1.4457831 1.2168736 1.3879671
1.7589191 -7.415221 1.5065746 -2.8283117 -0.0345416 0.020405415 1.8613338 1.4848534
1.7991656 0.09292126 1.3837066 0.0004312694 -0.16719675 0.044860404 0.022181422 3.1533616
1.4457042 -0.00741474 0.105053365 1.5490017 1.5785615 1.049519 1.6678243 1.1070483
1.6087029 -0.0857883 0.9070115 1.8947527 -0.04623248 1.2537816 1.5036213 1.4258752
1.3505031 2.061233 1.5569466 -0.15421055 1.6569201 -0.016543576 0.016369417 1.2790022
0.09086223 1.5885617 1.5913694 -0.11742675 1.104801 1.8742785 1.5512404 0.09741463

fc3.bias f4 [2]
00000000: 067f bf3e 7fdd 043f
0.374016 0.51900476
