assignments/cart_pole_optimal_control/cart_pole_optimal_control/dqn/dqn_cartpole_earthquake.pth (torch, 21386 bytes, 6 tensors)

fc1.weight f4 [64, 5]
0	0xc0807761	-4.0145726
1	0xbf0ec9bc	-0.5577657
2	0x408d1c8a	4.409734
3	0xbe8fd5eb	-0.28092894
4	0x3bea5949	0.007151757
5	0xbecb188f	-0.39667174
6	0xbf92e16d	-1.1475044
7	0x3f321536	0.69563615
8	0x3fe51627	1.7897385
9	0x3abe8a44	0.0014537056
10	0x401dcf66	2.4657836
11	0x3f073354	0.52812696
12	0xc0cb4304	-6.3519306
13	0xbf22723e	-0.6345557
14	0x3b12e43c	0.002241387
15	0xbf807f23	-1.0038799
16	0x3f1eb98e	0.62001884
17	0xbf13a2dd	-0.57670385
18	0x3e116baf	0.14201234
19	0x3d3665e7	0.044530775
20	0xc02e4648	-2.7230396
21	0xbdc5b30a	-0.096532896
22	0x4095a56c	4.676443
23	0xbecb5e91	-0.39720586
24	0x3d48c955	0.04902013
25	0x3e58527d	0.21125217
26	0x3e15558e	0.14583418
27	0xbedad935	-0.4274384
28	0x3e2d6ebb	0.16936772
29	0x3c4c8336	0.012482455
30	0x403ecd77	2.9812906
31	0xbe66dd3d	-0.22545333
32	0xc0c0fb6c	-6.030691
33	0xbe56c9eb	-0.20975463
34	0x3a9660df	0.0011472962
35	0x406286db	3.539481
36	0xbdab56c7	-0.08366161
37	0xc09aa113	-4.8321624
38	0xbe8f8176	-0.28028458
39	0x3d12726c	0.035753652
40	0xc00e5303	-2.2238166
41	0xbcd15079	-0.025551068
42	0x40c6c8c7	6.212009
43	0x3e127865	0.1430374
44	0xbc0ecddd	-0.008716074
45	0x3f566099	0.83741146
46	0x3e64445c	0.22291702
47	0xbf29bfb9	-0.6630817
48	0x3e50fa56	0.20407996
49	0xbc6f27ae	-0.014596863
50	0x40415f1c	3.02143
51	0x3e1971b6	0.14984784
52	0xc05eb949	-3.480059
53	0xbd115e8f	-0.03549057
54	0x3baaea41	0.0052159135
55	0x3d9a2279	0.075261064
56	0xbf030e4b	-0.51193684
57	0xc03fa0bd	-2.9941857
58	0x3e388c58	0.18022287
59	0xbbc3ebcb	-0.0059790364
60	0x3f7dc372	0.9912635
61	0x3e19a545	0.15004452
62	0x3f4fc240	0.81155777
63	0x3e0b797a	0.13620558
64	0xbd94b394	-0.07260814
65	0x3c13e8dc	0.009027686
66	0x3e9c6c1e	0.30551237
67	0x3f07ed5f	0.53096575
68	0xbe0c2e20	-0.1368947
69	0x3cbc9b4c	0.02302327
70	0xbf8570ae	-1.0425012
71	0x3f6591d2	0.8967563
72	0x403a9d19	2.9158385
73	0xbf863e45	-1.0487753
74	0x3aaec375	0.0013333397
75	0x3f718188	0.94338274
76	0x3d72feb9	0.059324954
77	0xbfe8fdfa	-1.8202507
78	0x3df5925c	0.119908065
79	0xbd0ae61f	-0.033910867
80	0x3f14c4cf	0.58112806
81	0x3edd7825	0.43255726
82	0x3f6af55c	0.9178064
83	0x3ee5b218	0.44862437
84	0x3cf052ca	0.029336352
85	0xbe58f690	-0.21187806
86	0xbe81f42f	-0.2538161
87	0x3f267adb	0.6503121
88	0xbe8763a4	-0.26443207
89	0xbc43762b	-0.011930029
90	0xbfb5bf07	-1.4198922
91	0xbe064bd3	-0.13114862
92	0x3f5e52f6	0.8684534
93	0xbdc6026b	-0.0966843
94	0x3b971dad	0.004611692
95	0xc0812165	-4.0353265
96	0xbe1e23af	-0.154433
97	0x40be9fd1	5.957009
98	0xbf3cb2d1	-0.7371035
99	0x3b37cbf3	0.0028045147
100	0xbfb56694	-1.4171929
101	0x3e08c206	0.13355264
102	0xbf77198c	-0.96523356
103	0x3d9fd5d1	0.07804454
104	0x3aa88d1a	0.0012859434
105	0x4053c887	3.3091142
106	0x3e7cd6fd	0.24691387
107	0xc09ad435	-4.838404
108	0xbed3d717	-0.41375038
109	0xbcf26c32	-0.029592607
110	0xbff3a461	-1.903454
111	0xbe8e3156	-0.27772015
112	0x405143f2	3.269772
113	0x3d01157d	0.031514633
114	0x3d28b073	0.0411839
115	0xbfec752c	-1.8473258
116	0x3f0630b0	0.5241804
117	0x3fa50577	1.2892293
118	0x3e97915a	0.29603082
119	0x3c0f794c	0.008756947
120	0x407eda50	3.9820747
121	0x3e314b49	0.17313875
122	0xc0b49391	-5.6430135
123	0x3d5d6584	0.05405189
124	0xbbacf908	-0.0052787103
125	0xc05d05e7	-3.4534853
126	0x3ebd9780	0.37029648
127	0x4097774f	4.733314
128	0x3eb9a693	0.362599
129	0xbca08966	-0.019596767
130	0x40140192	2.3125958
131	0xbe89dd4c	-0.2692665
132	0xc080a68e	-4.0203314
133	0x3f1a66ae	0.60312927
134	0xbb7f7a99	-0.0038982986
135	0x3f2902c3	0.6601984
136	0x3eb4ff33	0.35350952
137	0xbf98773c	-1.1911387
138	0x3eab9fc6	0.33520335
139	0xbcc26a19	-0.023732232
140	0x4023786f	2.5542257
141	0x3e0e6036	0.13903889
142	0xc08f3ca9	-4.476155
143	0xbe1d14dc	-0.15339988
144	0xbd2260b2	-0.039642997
145	0x3f11f6af	0.57017034
146	0xbd86189c	-0.065476626
147	0x3e31e9ef	0.17374395
148	0x3e39fd9f	0.18163155
149	0xbd2af360	-0.041736007
150	0xbf4abbd7	-0.7919287
151	0xbd91b6b9	-0.0711493
152	0x404ea27a	3.2286668
153	0xbeb4b998	-0.35297847
154	0xbc42d082	-0.011890532
155	0xbf9b7211	-1.2144185
156	0xbed1240e	-0.4084782
157	0x407b24e6	3.924127
158	0x3d8c9a10	0.068653226
159	0xbcf7aeb8	-0.03023468
160	0xbd21359d	-0.03935777
161	0x3dd66a5c	0.10469505
162	0x4074474c	3.8168516
163	0xbe3aa603	-0.18227391
164	0xbc81f870	-0.015865535
165	0xbf6cddcc	-0.92525935
166	0xbd7c9de5	-0.061674017
167	0x3ee88a12	0.4541784
168	0xbd5e136f	-0.054217752
169	0x3a6e98e4	0.0009101762
170	0xbd97d9a5	-0.07414559
171	0x3ee6c4d9	0.45072058
172	0xc0ccce73	-6.4002013
173	0x3e29787a	0.16549864
174	0xbb1168bc	-0.002218767
175	0x402ef555	2.7337239
176	0x3e4ffc3d	0.20311065
177	0xc0632fd8	-3.5497952
178	0x3ef9e9df	0.48811242
179	0xbd3b2718	-0.04569158
180	0x408f184a	4.471715
181	0xbdb5a1b1	-0.08868731
182	0xc0ba236b	-5.8168235
183	0xbdb828e8	-0.08992177
184	0x3a1f082c	0.00060665864
185	0xc08b0558	-4.3444023
186	0xbe82bc17	-0.25534126
187	0x405879b4	3.3824282
188	0xbe3b5ea1	-0.18297817
189	0xbbe9538a	-0.0071205543
190	0x3fd83483	1.6891025
191	0xbf376ba9	-0.7164865
192	0xbfb9dae3	-1.4519924
193	0x3f36ef42	0.7145883
194	0x3c1efd2d	0.0097039165
195	0xbf1e3210	-0.6179514
196	0xbea919ea	-0.33027583
197	0xbf99157d	-1.1959683
198	0x3e358888	0.17727864
199	0x3bfcb8ae	0.007712445
200	0x3fe9a7ea	1.8254368
201	0x3e613e22	0.21996358
202	0xbfb4eaed	-1.4134194
203	0xbc55e191	-0.0130542675
204	0x3d4d82c9	0.050173555
205	0x3fdde676	1.7335956
206	0x3e947e84	0.29002774
207	0xbfcd5756	-1.6042278
208	0x3e866279	0.26247004
209	0x3cd129b1	0.025532575
210	0xbd99e651	-0.075146325
211	0xbdc1d0a8	-0.09463626
212	0xc0ac3ceb	-5.3824363
213	0xbe2fd246	-0.17170057
214	0xbb0444fe	-0.0020182724
215	0x3f9f0b0f	1.242525
216	0xbf33ce02	-0.7023622
217	0xc0053fb3	-2.082013
218	0x3f5565e2	0.83358586
219	0xbb05f82c	-0.0020442111
220	0x3fd14f02	1.6352236
221	0x3eb48071	0.35254243
222	0xbf94bf50	-1.1620884
223	0x3e70842e	0.23487923
224	0x3a6f99a2	0.00091400195
225	0x400dcb3f	2.2155302
226	0x3ea6236b	0.32448897
227	0xc0c8db7a	-6.2767916
228	0xbe866910	-0.2625203
229	0xbcbc162a	-0.022959787
230	0xc0130047	-2.296892
231	0xbdc3f3e5	-0.095680036
232	0x40b59832	5.6748285
233	0x3f0c1e3a	0.5473362
234	0xbce4210a	-0.027847786
235	0xbedcd010	-0.4312749
236	0xbe683f16	-0.22680315
237	0x40ef23bc	7.473112
238	0x3cae4571	0.021273347
239	0xbb899ea5	-0.00419982
240	0x40a9f450	5.3110733
241	0xbe6003a0	-0.21876383
242	0xc08f6c31	-4.481957
243	0x3e1facf9	0.15593328
244	0xbbd238b8	-0.006415453
245	0x3e825734	0.25457156
246	0xbdb17b0b	-0.08666047
247	0xc0a0f3c3	-5.029756
248	0xbe691dfe	-0.22765347
249	0xbc3bad49	-0.011454889
250	0x3cfc2160	0.030777633
251	0xbf7d53b0	-0.9895582
252	0xbf843a72	-1.0330336
253	0x3f150251	0.5820666
254	0x3b7e49a3	0.0038801215
255	0xbf8dbc5d	-1.1073109

fc1.bias f4 [64]
0	0xbdc5915b	-0.09646865
1	0xbd6b9df6	-0.05752369
2	0xbf833c7c	-1.0252833
3	0xbf83d492	-1.0299246
4	0xbeded1c6	-0.4351942
5	0x3dd135cc	0.10215339
6	0xbdf0cdbf	-0.11757993
7	0x3e8c00ad	0.27344266
8	0x3d3f4d0b	0.046704333
9	0x3f9a5b68	1.2059145
10	0x3f4c408e	0.79786
11	0x3f5fb46c	0.87384677
12	0x3ed590f7	0.41712162
13	0xbdf4069e	-0.11915325
14	0xbdf68dec	-0.12038788
15	0xbe2b36a2	-0.1672006
16	0x3deb26dc	0.11482021
17	0x3ff393d3	1.9029487
18	0xbf52a21c	-0.8227861
19	0x3dd218be	0.102586254
20	0xbeac545e	-0.33658117
21	0xbef3d726	-0.47625083
22	0xbef5be6b	-0.4799684
23	0xbf115f03	-0.567856
24	0x3d62c7b7	0.055366244
25	0xbf4913c6	-0.78545797
26	0x3f012f16	0.5046247
27	0x3f1b65a6	0.6070198
28	0xbf4f6629	-0.8101526
29	0xbfbd7620	-1.4801674
30	0x3fb41c2e	1.40711
31	0x3d9da20f	0.07696926
32	0x3f304a89	0.6886373
33	0xbf307c52	-0.689397
34	0xbfa0d398	-1.2564573
35	0x3f01dc2e	0.5072659
36	0xbd0472ab	-0.03233592
37	0xbe692389	-0.22767462
38	0x3e6faccf	0.23405765
39	0x3fa3be2a	1.2792408
40	0xbf9df6d3	-1.234095
41	0xbe8dbce2	-0.2768317
42	0xbf8a10b8	-1.0786352
43	0xbe3fd659	-0.18734111
44	0xbebe0c9f	-0.37119004
45	0x3ce25456	0.027628105
46	0x3d1e8926	0.038705014
47	0xbfc6b61d	-1.5524327
48	0xbfadf55b	-1.3590502
49	0xbf80f637	-1.0075139
50	0xbdd91fe8	-0.10601789
51	0xbd48630a	-0.048922576
52	0xbf97b076	-1.1850727
53	0x3d91a3d1	0.071113236
54	0xbf57f276	-0.8435434
55	0xbfab74f1	-1.3395063
56	0x3f03d06d	0.5148991
57	0xbf2db7bf	-0.678585
58	0x3edf62b0	0.4362998
59	0x3e551915	0.2081035
60	0x3e557fef	0.20849584
61	0xbf69ccee	-0.9132832
62	0x3e675950	0.22592664
63	0x3f0b599f	0.54433626

fc2.weight f4 [64, 64]
0	0x3bfe3a78	0.007758435
1	0xbdeeca9c	-0.116597384
2	0xbc69bafc	-0.014265772
3	0xbd2e7cc8	-0.04259947
4	0xbd0f13ec	-0.03493111
5	0xbdfe495e	-0.124163374
6	0xbdfe97f3	-0.12431326
7	0xbdfd7191	-0.12375177
8	0xbd918f35	-0.07107393
9	0x3d17c0b2	0.037049003
10	0x3d957b86	0.07298951
11	0xbdcbd6ce	-0.0995308
12	0x3d48bdc1	0.04900909
13	0xbce74b82	-0.028234247
14	0x3db87a11	0.09007657
15	0xbde2a34d	-0.110663034
16	0xbdf3d758	-0.11906308
17	0xbd7ea7e5	-0.062171835
18	0x3d902a70	0.07039344
19	0xbe1f90b5	-0.15582545
20	0x3bec4c3d	0.0072112367
21	0xbd6462a4	-0.055758134
22	0xbe03b8a6	-0.12863407
23	0x3c8d5679	0.017253147
24	0xbe28a683	-0.16469769
25	0xbc7c8a0c	-0.015413772
26	0xbc9c9efa	-0.019118775
27	0x3d1c2c0f	0.038127955
28	0xbd9525d3	-0.07282605
29	0x3d9a4e3f	0.075344555
30	0xbdc5a72e	-0.096510276
31	0xbdd0d8e8	-0.101976216
32	0xbde6171c	-0.112348765
33	0xbe0b7920	-0.13620424
34	0xbdf4d432	-0.119545355
35	0x3db16529	0.08661873
36	0xbd2dd1a9	-0.042436276
37	0xbd312c82	-0.043255337
38	0xbd440442	-0.047855623
39	0x3bf22b91	0.0073904474
40	0xbd723224	-0.05912985
41	0xbdf27da6	-0.11840372
42	0xbd0f0fec	-0.034927294
43	0x3d8fa4b3	0.07013836
44	0xbdf3c037	-0.119018964
45	0xbd81e2f0	-0.06342113
46	0x3d363975	0.04448839
47	0x3d98668e	0.07441436
48	0x3d852518	0.06501216
49	0xbc8c0f68	-0.01709719
50	0xbdc3f30a	-0.095678404
51	0x3b684736	0.0035442836
52	0x3d298d88	0.04139474
53	0xbdb18a77	-0.08668988
54	0xbdc77d92	-0.097407475
55	0x3da04c66	0.07827072
56	0xbd5668ef	-0.052346166
57	0xbc9ff247	-0.019524707
58	0xbc47f7cd	-0.012205076
59	0xbcde0e74	-0.027106501
60	0xbe19da76	-0.15024742
61	0xbd854781	-0.06507779
62	0xbdbac119	-0.09118862
63	0xbd640d1b	-0.05567656
64	0xbcf8746f	-0.030328957
65	0x3de027d4	0.109450966
66	0xbee5d918	-0.44892192
67	0xbd534b4d	-0.051585484
68	0x3da64bbf	0.08119916
69	0xbc3ee3a1	-0.011650951
70	0xbf3d8653	-0.7403309
71	0x3dbf5ab8	0.09343475
72	0xbe830ea5	-0.2559711
73	0x3e10651a	0.14101067
74	0x3dbf5391	0.09342111
75	0x3e77df43	0.24206261
76	0x3d02ef8e	0.03196674
77	0xbd02b75b	-0.031913143
78	0x3e6a7081	0.2289448
79	0xbd089643	-0.033346426
80	0xbc8e0636	-0.017336946
81	0x3ea5490e	0.322823
82	0xbd862880	-0.065506935
83	0xbe2603a5	-0.16212328
84	0x3d6b73f5	0.057483632
85	0x3dd49106	0.103792235
86	0xbbb60fab	-0.005556067
87	0xbcc941e1	-0.024567546
88	0xbd9a0ec9	-0.07522351
89	0xbdef9cbf	-0.11699819
90	0x3ca46a7f	0.020070313
91	0xbd8f5873	-0.06999292
92	0x3d1293de	0.03578555
93	0xbd899624	-0.0671809
94	0x3e7ceefe	0.24700543
95	0xbc551819	-0.013006234
96	0x3e066e7d	0.13128085
97	0x3d25ae98	0.04044971
98	0xc05edf54	-3.4823809
99	0x3e08c3cf	0.13355945
100	0x3d048e9e	0.032362573
101	0x3e7f426f	0.24927686
102	0xbe166c7b	-0.1468982
103	0x3e9d2e1d	0.30699244
104	0xbc522d13	-0.012828129
105	0x3c7f3a5b	0.015577878
106	0xbfce8569	-1.6134464
107	0xbd0c1add	-0.034205306
108	0x3dbb2262	0.091374174
109	0xbe37a350	-0.17933393
110	0xbdd48109	-0.10376174
111	0xc08089aa	-4.0168047
112	0xbd723faf	-0.059142765
113	0xbf13e4b7	-0.57770866
114	0x3eb26949	0.3484595
115	0xbd2cfa7e	-0.042231075
116	0xbafc6abd	-0.0019257885
117	0x3d3343f3	0.043765973
118	0x3c4d7960	0.012541145
119	0xbd95bbec	-0.07311234
120	0x3c511080	0.012760282
121	0x3c4b7a15	0.012419243
122	0xbd8a4a28	-0.067524254
123	0xbde3f766	-0.11131172
124	0x3db349b8	0.08754295
125	0xbf45a8a7	-0.7721047
126	0xbe81a4c3	-0.25321016
127	0xbeaf9dc9	-0.34300068
128	0x3f29f766	0.66393125
129	0xbcc83f3b	-0.024444213
130	0xbf8d87ce	-1.1057069
131	0x3bca2e35	0.006170059
132	0x3f066134	0.5249207
133	0xbdbac866	-0.09120254
134	0xbd9649eb	-0.073383175
135	0xbf3cb555	-0.7371419
136	0xbf0c5f60	-0.5483303
137	0x3d3fe512	0.046849318
138	0xbe9aae91	-0.3021131
139	0x3c9f5f4f	0.019454626
140	0xbcf46cab	-0.029836973
141	0x3e2ed4aa	0.17073312
142	0x3ea6ff8c	0.32616842
143	0x3d9fdaa8	0.07805377
144	0xbd498773	-0.04920144
145	0x3c16957d	0.009190914
146	0xbdfe8be1	-0.124290235
147	0x3ec2ec6f	0.3807101
148	0xba8a9009	-0.001057149
149	0x3c36c2bb	0.011154826
150	0x3e4ac2e6	0.1980091
151	0xbc19ee87	-0.009395248
152	0x3edcff68	0.4316361
153	0x3e0592bc	0.13044256
154	0x3ea5d4f5	0.32389036
155	0xbde20e9f	-0.11037945
156	0xbca7d1be	-0.020485755
157	0xbe74472d	-0.23855276
158	0x3ec56e1e	0.38560575
159	0xbe8fa689	-0.28056744
160	0x3eba149a	0.36343843
161	0x3b217630	0.0024637096
162	0xc03e8ead	-2.9774582
163	0x3f0587ee	0.5216054
164	0x3f699515	0.91243106
165	0x3eb5bd85	0.35496154
166	0x3dcb1910	0.0991689
167	0x3bd18d5a	0.0063950242
168	0xbde3374d	-0.11094532
169	0x3e78582c	0.24252385
170	0xbfff28d1	-1.9934331
171	0x3e85bb7e	0.26119608
172	0xbde7bd99	-0.1131546
173	0x3e535db5	0.20641215
174	0xbf00ef9d	-0.5036562
175	0xc0475169	-3.114344
176	0x3f818bb9	1.0120765
177	0xc0052b74	-2.0807772
178	0x3e2636d1	0.16231848
179	0x3e310a1e	0.17289016
180	0x3ef17ce7	0.47165605
181	0xbd7c2638	-0.061559886
182	0x3d7716d3	0.0603245
183	0xbf60290f	-0.8756265
184	0xbf0c4107	-0.54786724
185	0xbe1fdcd3	-0.15611582
186	0x3e220e3f	0.15825747
187	0x3d303baf	0.04302567
188	0x3dc49ef6	0.09600632
189	0xbf74ed4d	-0.9567459
190	0x3e0181c6	0.12647161
191	0xbf6fe0e4	-0.9370253
192	0xbeef11a9	-0.4669316
193	0x3e43ca3d	0.19120117
194	0x3f493fd2	0.7861301
195	0x3d174604	0.036932006
196	0x3cc492f6	0.023995858
197	0x3e24c84f	0.16092037
198	0xbea26d7b	-0.31724152
199	0xbe86e3bb	-0.2634562
200	0xbe41af94	-0.18914634
201	0xbcb7dfe4	-0.022445627
202	0xbe2d0811	-0.16897608
203	0x3edabeda	0.42723733
204	0xbc6bbbe4	-0.014388058
205	0x3e3e3571	0.18575074
206	0x3d1da02e	0.038482837
207	0x3e801cb1	0.2502189
208	0x3df93c3b	0.12169691
209	0xbf1f8b7f	-0.6232223
210	0x3bd4b8a0	0.0064917356
211	0xbce0d19e	-0.027443703
212	0x3e4643a6	0.19361743
213	0xbd137701	-0.036002163
214	0xbd9f1ba2	-0.077689424
215	0xbc9c2247	-0.019059313
216	0x3d4dd0d8	0.050247997
217	0xbe1d3e2f	-0.15355752
218	0x3e7790e1	0.2417636
219	0x3e07ec4f	0.13273738
220	0x3ea69c95	0.32541338
221	0x3dc5df3d	0.0966172
222	0xbf0ebc4d	-0.55756074
223	0x3e60417b	0.21899979
224	0xbf087f63	-0.53319377
225	0x3c32823d	0.010895309
226	0x3ef40f0b	0.47667727
227	0x3ed6b325	0.4193355
228	0x3f0142ae	0.5049237
229	0xbf010944	-0.50404763
230	0x3e39dca9	0.18150581
231	0xbd6173ff	-0.055042263
232	0x3e7465a3	0.23866896
233	0x3e66e410	0.22547936
234	0xbd75164c	-0.059835717
235	0x3e685059	0.226869
236	0x3e88e492	0.26736885
237	0xbdf3f00c	-0.1191102
238	0x3e0905f9	0.13381185
239	0x3f8c4f30	1.0961666
240	0xbea86259	-0.32887533
241	0xbd6fedde	-0.058576457
242	0x3d04056b	0.03223173
243	0xbda2bf24	-0.079466134
244	0xbdf030e1	-0.11728073
245	0x3d164178	0.03668353
246	0x3f2a7261	0.6658078
247	0x3f20ec91	0.6286097
248	0x3cd93f29	0.026519375
249	0x3e4b612a	0.19861284
250	0x3c7fbba0	0.015608698
251	0x3dff9949	0.12480409
252	0x3da97795	0.082747616
253	0x3eaf7a8d	0.34273186
254	0xbd41e727	-0.047339585
255	0xbdf5d4c7	-0.12003475

fc2.bias f4 [64]
0	0x3d041cde	0.032254092
1	0x3f4fe3d9	0.8120704
2	0x3efd307a	0.49451047
3	0xbf78648a	-0.9702841
4	0xbe152c09	-0.1456758
5	0xbe0c8e0b	-0.1372606
6	0x3d829631	0.06376303
7	0x3f6a62db	0.9155709
8	0x3d990e19	0.07473392
9	0x3f834f34	1.0258546
10	0x3f078e17	0.52951187
11	0x3f525271	0.82157046
12	0x3f774620	0.9659138
13	0x3f6eb6c2	0.93247616
14	0xbda597f8	-0.08085626
15	0x3f395575	0.7239602
16	0xbd8b61ef	-0.06805789
17	0xbe0260ac	-0.1273219
18	0x3f46470f	0.77452177
19	0x3f2475d8	0.64242315
20	0x3f300f03	0.68772906
21	0xbeb7c5c2	-0.35893065
22	0x3f83c5c6	1.0294731
23	0x3fb23cec	1.3924842
24	0x3f992add	1.1966206
25	0x3d714842	0.0589068
26	0x3ef7221d	0.48268214
27	0x3f2771d8	0.65408087
28	0x3f8553e7	1.041623
29	0x3f1e2ff0	0.61791897
30	0x3f15db96	0.58538187
31	0x3f6f5bba	0.9349934
32	0xbccd1572	-0.02503464
33	0x3f7b6f94	0.9821713
34	0x3f8a26ec	1.0793128
35	0x3f71a816	0.94397104
36	0x3f28c8bd	0.659313
37	0x3f7a78cb	0.97840565
38	0x3e8a1f02	0.26976782
39	0x3f84f3b2	1.038687
40	0x3c5b6a53	0.013392049
41	0x3defedcf	0.1171528
42	0x3f87f94d	1.0622956
43	0x3f8b82fe	1.0899351
44	0x3ed13cfb	0.40866837
45	0x3f7b0182	0.98049176
46	0x3f79e919	0.97621304
47	0x3f9a1bb2	1.2039702
48	0x3f3febf2	0.749694
49	0x3f85c781	1.0451509
50	0xbe200f70	-0.15630889
51	0x3f538681	0.8262711
52	0xbd8b5e3a	-0.06805082
53	0x3d2a9822	0.04164899
54	0xbd25cb61	-0.04047716
55	0xbde39083	-0.11111548
56	0x3f37a3f3	0.7173454
57	0x3e74adff	0.23894499
58	0x3f80decd	1.0067993
59	0x3f2b8e77	0.6701426
60	0x3d9db2ee	0.07700144
61	0xbe9785f4	-0.29594386
62	0x3c822e2d	0.015891159
63	0x3f1e9160	0.61940575

fc3.weight f4 [2, 64]
0	0xbc9a517c	-0.018837683
1	0x3d3175ff	0.04332542
2	0xbf5f05b8	-0.871181
3	0xbe4bcc49	-0.19902147
4	0xbb8edad8	-0.0043595843
5	0xbc0e63b7	-0.008690766
6	0xc008ec48	-2.1394215
7	0x3e13fa05	0.14450844
8	0x3b037130	0.0020056479
9	0x3e32c560	0.17458105
10	0x3e81ac41	0.25326732
11	0x3dba1133	0.09085312
12	0x3ef7b9d2	0.48383957
13	0x3ebf9e31	0.37425378
14	0x3bc1728a	0.0059035467
15	0x3eabb4b9	0.33536318
16	0x3bed9f0e	0.007251627
17	0x3b3dde26	0.0028971522
18	0x3db2bc38	0.08727306
19	0xbee6e7a3	-0.450986
20	0x3e94bceb	0.29050383
21	0x3da36375	0.07977954
22	0x3d643a49	0.055719648
23	0x3ef65c3d	0.48117247
24	0x3d524d4d	0.05134325
25	0xbe35c9ad	-0.17752714
26	0xbfb1759f	-1.386402
27	0x3ef3abeb	0.475921
28	0x3e18d790	0.1492598
29	0x3e8c81e9	0.27442864
30	0x3f2408d1	0.6407595
31	0x3e100150	0.14063
32	0xbd916577	-0.07099431
33	0x3f036032	0.5131866
34	0x3eb2f245	0.34950462
35	0xbe6ca247	-0.23108779
36	0xbe9752a2	-0.2955523
37	0x3ea5a02f	0.32348773
38	0xc011b233	-2.2765014
39	0x3e26464e	0.16237757
40	0xbd854ffa	-0.06509395
41	0x3fc0e3f4	1.5069566
42	0x3eb3c8b8	0.35114074
43	0x3e1ac884	0.15115553
44	0x3f03020b	0.5117499
45	0x3ef7ad78	0.48374534
46	0x3e8ac2cb	0.2710174
47	0x3e63b578	0.22237194
48	0x3e048feb	0.12945525
49	0x3e9ee57b	0.31034455
50	0xbdb2c66a	-0.08729251
51	0x3c07215a	0.008247698
52	0x3d4e4ae0	0.050364375
53	0x36ba2d51	5.5485075e-06
54	0x3c8f92a8	0.017525986
55	0xbd461846	-0.048362993
56	0xbebfc847	-0.37457487
57	0x3c431627	0.011907137
58	0x3e1db400	0.15400696
59	0x3df7145b	0.120644294
60	0xbf7e6f3a	-0.9938847
61	0x3eae59da	0.34052926
62	0xbcc812f7	-0.024423106
63	0x3e602787	0.21890078
64	0xbd331229	-0.04371849
65	0x3d9905c9	0.074718066
66	0xbe0a981b	-0.13534586
67	0xbe897204	-0.268448
68	0x3c0e95a4	0.008702669
69	0xbd131d0e	-0.03591638
70	0x3ffbb85b	1.9665636
71	0x3e23fc94	0.1601432
72	0xbd6c261d	-0.057653535
73	0x3e085fe8	0.13317835
74	0x3ee99bea	0.45626765
75	0x3e223941	0.15842153
76	0x3ea70d65	0.32627407
77	0x3f0c2c51	0.5475512
78	0x3cfe2fb6	0.03102861
79	0xbd2bd23a	-0.041948535
80	0xbd863139	-0.06552357
81	0xbcbdac27	-0.023153378
82	0xbc3a4f20	-0.011371404
83	0x3e839034	0.25695956
84	0x3a81e43c	0.0009909938
85	0xbf290136	-0.6601747
86	0x3dcbde22	0.09954478
87	0x3eecdcfa	0.46262342
88	0x3f8321ee	1.024473
89	0x3edea2b6	0.43483514
90	0x3f6408f8	0.89076185
91	0xbe5c6f04	-0.21526724
92	0x3d9fc641	0.07801486
93	0x3d27a782	0.040931232
94	0xbf19a665	-0.6001952
95	0x3e44c816	0.19216952
96	0xbd1559d5	-0.036462624
97	0x3e9c6933	0.3054901
98	0x3d757229	0.059923325
99	0x3f53f20c	0.8279121
100	0x3ea48fc0	0.32140923
101	0x3b6bfb7e	0.0036008055
102	0xbfbe9b0b	-1.4891065
103	0x3e47835c	0.19483703
104	0xbd0e389c	-0.034721956
105	0xbfc733b3	-1.5562652
106	0x3ea43b34	0.32076418
107	0x3e52c6b2	0.20583609
108	0xbf8d4ac8	-1.1038446
109	0x3e667cd0	0.2250855
110	0x3eccc40e	0.39993328
111	0x3e2681c3	0.16260438
112	0xbcdda104	-0.027054317
113	0x3ef53572	0.47892338
114	0x3cd39a75	0.025830487
115	0x3e9236e3	0.285575
116	0x3da6f74a	0.081526354
117	0xbd8a3f71	-0.06750382
118	0x3b15b21c	0.0022841757
119	0x3caae4cc	0.020861052
120	0x3eb673c2	0.3563519
121	0xbe44ea67	-0.19230042
122	0x3e46bf0f	0.1940882
123	0x3e92a7ec	0.2864374
124	0x3fb301f6	1.3984973
125	0xbe7008cf	-0.2344086
126	0x3c9ce0ea	0.019150216
127	0xbee55199	-0.44788817

fc3.bias f4 [2]
0	0x3f4cd026	0.8000511
1	0x3f392ecc	0.7233703
